01_networks/models/Network00_trainedbinary.tar (torch_old, 45307 bytes, 9 tensors)

weight f4 [30, 15]
000000 94 12 39 be 10 4d f2 3c a7 49 c1 bd 6d 1f 8e 3e
       -0.18073493 0.029577762 -0.09437876 0.2775835
000010 4a fe ae bd 71 cf 09 be 47 10 ab bd 0e a1 7f 3e
       -0.085445955 -0.13458039 -0.08352714 0.24963781
000020 86 dc 7c bd 7d 7c 31 3d f3 a3 39 3e b9 aa 9d be
       -0.061733745 0.043331612 0.18128948 -0.30794314
000030 0d 48 6d be 49 48 46 be fe 5e 57 3e e3 ee 3d be
       -0.23172016 -0.19363512 0.2103233 -0.1854816
000040 f9 4c 15 be 76 6d 53 3e 03 a6 87 3e 92 f6 3c 3e
       -0.14580144 0.20647225 0.26493844 0.18453434
000050 e1 ab 65 be f4 d3 22 be 94 22 66 3d 7d 73 1f 3e
       -0.22428848 -0.15901166 0.05618532 0.15571399
000060 18 c5 b1 bc 48 59 86 3e 38 e8 e1 3d bd 0c 10 3e
       -0.021700427 0.2623999 0.1103062 0.1406736
000070 35 b0 88 3e e8 81 4d bc 84 c9 b3 bc 93 48 09 3e
       0.26696935 -0.012543179 -0.021946676 0.13406591
000080 d4 5b b0 3d 15 20 b2 bd f9 a7 20 be ac 86 d5 bd
       0.08611265 -0.086975254 -0.15689076 -0.10426077
000090 78 81 c3 bc 43 12 8d bc 90 3d d0 3d 5f 0a 7b be
       -0.023865446 -0.017220622 0.10167992 -0.24515675
0000a0 52 12 61 3e 48 03 c4 bc f7 d6 3e be 42 16 97 be
       0.21979645 -0.023927346 -0.1863669 -0.2950917
0000b0 55 3d 36 be ef 18 8a bc ae a1 e7 bd 40 37 26 be
       -0.17796834 -0.016857592 -0.11310135 -0.16232014
0000c0 53 ba a9 b9 56 dd 54 be c5 b2 ad bd cb c6 b4 3d
       -0.00032373014 -0.20787558 -0.08481363 0.08826979
0000d0 db 98 5f 3d d4 20 62 be 0d 2d 93 bd 2b 0c bd 3d
       0.054589134 -0.22082835 -0.07186327 0.092308365
0000e0 a5 59 23 be eb 3f 97 3e cb 0f 73 3e 71 39 69 3d
       -0.15952165 0.29540953 0.23736493 0.056939546
0000f0 69 05 fb 3d 68 fe d4 bd e2 84 1c 3e 6f 59 1c 3d
       0.12256891 -0.10400087 0.15285066 0.038171228
000100 28 61 54 3d e2 dc dd 3d a8 e6 1f be 7b 63 2b 3e
       0.051850468 0.10833146 -0.15615332 0.16737168
000110 2f 32 2f 3d 03 86 30 3e db 81 3b be 71 a8 cc bc
       0.04277247 0.17238621 -0.18311255 -0.024982663
000120 8e 50 82 3e 98 7f 42 3e 15 8e c7 bd c4 00 0d be
       0.25452083 0.18993986 -0.09743897 -0.13769823
000130 c7 45 13 3e ff 4e 37 be b4 87 73 bc f3 25 77 be
       0.14382087 -0.17901228 -0.014863897 -0.2413557
000140 f9 dd 47 be 6c fd 2b 3e f2 dd ce 3d 09 47 d5 3d
       -0.1951827 0.16795892 0.101009265 0.104139395
000150 75 fb 5e 3d 8c ea 20 3d 9a f1 95 3d 85 fd 77 3c
       0.054439027 0.03928618 0.073214725 0.015136127
000160 46 07 5e 3e 20 a8 5c 3d ad fe 21 3e 37 e6 02 3e
       0.21682462 0.053871274 0.15819807 0.12783132
000170 c0 e4 0d 3c 73 08 59 3d d4 5b 23 be bf 7e f8 3d
       0.008660495 0.052986573 -0.15952998 0.1213355
000180 0a 14 78 bd eb 0f 57 3e 7d fb 62 3d 3c f3 14 be
       -0.060565986 0.21002166 0.05541562 -0.14545912
000190 c6 ea d5 bd d1 89 96 3d 2a e5 87 3b a1 1c c0 bd
       -0.1044517 0.07350505 0.0041471915 -0.093804605
0001a0 54 32 86 be d7 ed f8 3b 4a 68 42 3e b1 41 53 be
       -0.26210272 0.007596712 0.18985096 -0.20630528
0001b0 3c 24 50 be 61 9b 1b be 5e cd 0b 3e a5 de a4 bd
       -0.20326322 -0.15195991 0.1365256 -0.080502786
0001c0 96 e4 ed bd e7 03 84 3e 8d 5c 09 3d 76 6c 09 bd
       -0.11615865 0.25784227 0.03353553 -0.033550702
0001d0 ac ec 38 be 3e fd 49 3d bd f5 38 3d be 28 28 3e
       -0.18059033 0.049313776 0.04515623 0.16421792
0001e0 49 43 5d 3d dd 8f 6d 3e 7a 77 fe 3b 91 43 ab bd
       0.054019246 0.2319941 0.0077657076 -0.08362497
0001f0 8e 6c 13 be c1 f7 15 be 9d 95 c3 bd 5f ee 47 3e
       -0.14396879 -0.14645292 -0.09550021 0.19524525
000200 9b 86 b5 3d b8 e7 67 be 01 ff 93 3d 76 f1 c3 bd
       0.088635646 -0.22646987 0.072263725 -0.095675394
000210 08 38 76 3e 82 ec 15 be 56 10 57 bd 60 54 03 bc
       0.24044812 -0.14641002 -0.052505814 -0.008015722
000220 bc dd af 3d a6 0d c7 bd c9 de 16 bd 05 1a 0e 3e
       0.08587214 -0.097194 -0.03683356 0.13877113
000230 1c fc 2b be 5c 99 45 3e ca ce f8 3d ff 4a f5 3d
       -0.16795391 0.19296783 0.12148817 0.11977195
000240 85 3e 4d 3e 3c 8f 54 bd 6b b7 4b bd c0 0a 90 3e
       0.2004338 -0.05189441 -0.049735468 0.28133202
000250 6e 17 cb 3d 8d 76 86 be 6a 01 5b 3d a4 2e f1 bd
       0.09916578 -0.26262322 0.053468145 -0.11776474
000260 f3 3a 25 be 31 6b 43 3e b7 c3 30 3d d7 2c 33 3e
       -0.16135769 0.19083859 0.0431554 0.17497574
000270 5d 37 87 be 7f 4d c8 bc b9 07 50 be 2a 97 93 3d
       -0.26409426 -0.024451016 -0.20315446 0.07206567
000280 fc 3c 3b 3e 5d c3 b9 3d 8f f1 53 bd 0b bb a3 3d
       0.18284982 0.09070466 -0.05174404 0.0799466
000290 83 41 33 3d ba 58 39 be 9e 12 0c be 71 a1 7a be
       0.04376365 -0.18100253 -0.13678977 -0.24475648
0002a0 2a 50 6c 3e 4f 13 2b 3e 0e fe bf 3c 65 0c 5c be
       0.23077455 0.16706584 0.023436572 -0.21489103
0002b0 80 53 b9 bd de f6 6b 3d 41 a8 82 3e 0b b7 ee bc
       -0.090491295 0.057608478 0.25518993 -0.029140016
0002c0 1f e3 08 3d 86 33 4e 3d 8f a6 a4 bd af ba 6d 3e
       0.033419725 0.050342105 -0.08039581 0.23215745
0002d0 5b 07 3c be c8 85 b4 3d 60 45 bc bc a4 92 0b 3e
       -0.18362181 0.08814579 -0.0229823 0.13630158
0002e0 aa 70 89 3d 99 3d df bd 5d a5 26 3c da 69 45 3e
       0.06710942 -0.10900421 0.010171262 0.1927866
0002f0 dc 97 5a be b8 fd 14 bd d8 e0 4a 3e 9f b9 41 be
       -0.21346992 -0.036374778 0.19812334 -0.18918465
000300 df a3 ad 3c 2d 1e 85 3d c1 27 12 3d 88 19 8c 3e
       0.021196304 0.06499896 0.035682444 0.2736323
000310 5e 5b 27 be 3c 46 79 bd a1 cc 02 3e 6f 42 0f be
       -0.16343448 -0.060857996 0.12773372 -0.13990186
000320 fa e5 73 3d 70 15 51 be 4e 47 02 3e b2 70 2e 3e
       0.059545495 -0.20418334 0.12722513 0.17035177
000330 02 05 f3 3d 05 bd f7 bd bb 06 07 3d 89 ec 01 3e
       0.118661895 -0.120965995 0.032965403 0.12687887
000340 65 a2 09 3d ca 44 c8 bd c5 ed f0 bd 47 8e 0c be
       0.033602137 -0.097787455 -0.11764101 -0.1372615
000350 fb 7e 04 be b5 05 5b 3e 3f 91 38 be a4 cf 93 bd
       -0.12939064 0.21388896 -0.18024157 -0.07217339
000360 44 3e 8b be 2b 29 5b be a5 e1 77 be 8c 27 9b 3d
       -0.27195942 -0.21402423 -0.2420717 0.07575902
000370 e1 37 4e be b1 ba 30 3e 7e dc 87 3e a9 f8 58 be
       -0.20138504 0.17258717 0.2653541 -0.21188606
000380 79 19 6f be 2f 83 33 be a9 f0 0c bd be fe a4 3d
       -0.23349561 -0.17530511 -0.0344092 0.08056401
000390 10 f9 81 3e c9 b8 5d 3e fb bb f0 3b 47 75 4c 3e
       0.25385332 0.21652521 0.007346628 0.19966613
0003a0 78 4a 0d 3e e7 5b e7 3d 5d 63 1d be 2e 3c 78 bc
       0.13797939 0.11296826 -0.15369935 -0.015151067
0003b0 14 06 80 3e 2d ad 59 be d4 3f a2 bd 72 92 71 bc
       0.25004637 -0.21257468 -0.079223305 -0.014744388
0003c0 26 6d 34 bc 23 61 89 be e3 93 59 be d3 9c 09 3e
       -0.011012351 -0.26831922 -0.2124782 0.1343873
0003d0 37 4d 38 3e 24 dd 58 be aa b0 44 be 61 cf 53 3e
       0.17998205 -0.21178108 -0.19208017 0.20684578
0003e0 22 ca 3f 3e f7 86 9a bd 6d 7d a9 bc 8e 14 34 3d
       0.18729451 -0.07545274 -0.02068969 0.043964915
0003f0 6c eb 1e 3d 14 e7 68 3e 00 bb 2d 3e 8c ed 57 3d
       0.038798735 0.227444 0.16965866 0.052716777

bias f4 [30]
000000 39 f9 58 3e 82 76 5d bd f6 1d 86 be 24 3f 4c 3e
       0.21188821 -0.054068096 -0.26194733 0.19945961
000010 8c a2 6d be 65 76 bd bc 37 c5 f5 3d 5d 82 42 3d
       -0.23206538 -0.023127744 0.12000506 0.047487605
000020 47 09 a3 3d 92 8d f3 bb 21 e4 de 3d 0a c0 79 3e
       0.07960754 -0.007432648 0.10883356 0.24389663
000030 53 be 33 be 44 bf cf bd dd 6d 88 be f2 e7 36 3e
       -0.17553072 -0.10143903 -0.2664632 0.17861918
000040 1d 07 79 be 5f ae 7d bc 30 b9 43 be 60 50 37 3e
       -0.2431912 -0.015483468 -0.19113612 0.17901754
000050 7e 74 5d be 0e 5e 37 bc ef 6c 26 3c f0 b5 77 3e
       -0.2162647 -0.011191858 0.010157808 0.24190497
000060 74 7a 34 be 5e ff ef 3d b7 6e c6 bd 49 c4 2c bc
       -0.17624837 0.11718629 -0.09689086 -0.010544845
000070 6f 34 5d 3e 25 37 2e 3e
       0.21602033 0.17013223

weight f4 [60, 30]
000000 e9 08 27 3e 7e 6d ae bd 77 df ce 3d e7 d2 d4 3b
       0.16311993 -0.08516978 0.10101216 0.006494868
000010 59 9b 8c bd a3 fd da 3d 6c 4f 1f 3d fb a2 d2 3d
       -0.06865568 0.106929086 0.038894102 0.10284992
000020 6e f8 ea bb bf 3d a2 3d 59 21 19 be 07 3f a6 3d
       -0.0071707284 0.079219334 -0.14954127 0.0811749
000030 15 f4 6a 3b fc 21 54 bd a2 06 f4 3d 45 b4 26 3e
       0.003585105 -0.051790223 0.119153276 0.16279705
000040 9b 60 9c bd bb e2 15 bd 8f 94 02 3e 0b 92 7d 3c
       -0.076356135 -0.03659318 0.12751983 0.015476714
000050 d5 10 e7 3d 50 02 cd bd 1e 59 3e be 97 e7 f6 bd
       0.11282507 -0.10010207 -0.18588683 -0.12055891
000060 3e 9c 84 3d 37 f6 00 3e 1c 5b 28 3d aa c9 ed 3d
       0.06475113 0.12593924 0.041102514 0.1161073
000070 a0 9a 30 be 68 3a 83 3d dc c4 07 3e ca ce 27 3e
       -0.17246485 0.064076245 0.1325869 0.16387478
000080 13 f4 3a be 06 f4 e1 bb d5 80 f9 3d 90 51 8b bd
       -0.1825717 -0.006895545 0.12182776 -0.06802666
000090 0d b8 0e be a5 de bf bd 7f 35 84 bd e5 36 1b 3e
       -0.13937397 -0.09368638 -0.06455516 0.1515766
0000a0 6a e7 a8 bb a9 cc 1e be 0b 87 26 ba 43 73 d2 bd
       -0.00515454 -0.15507759 -0.00063525204 -0.10275891
0000b0 58 73 d1 bd dc d9 36 3e 84 8e fb 3d d2 f6 e8 bb
       -0.10227078 0.17856544 0.12283042 -0.0071095014
0000c0 bb ed b1 3d 11 54 db 3d 28 14 91 3d 66 06 b4 3d
       0.086879216 0.10709394 0.070839226 0.08790283
0000d0 da 68 dd bc 68 cf ff 3c 17 e9 f9 bc 91 44 45 3e
       -0.027027536 0.031226829 -0.030506654 0.19264437
0000e0 48 86 c4 bd cc 26 f4 bd e5 9c 11 3e d4 f7 1f bd
       -0.095959246 -0.119214624 0.14220007 -0.039054707
0000f0 d3 a7 16 3c 15 f4 28 be 9b 04 9f bd cf 77 84 bd
       0.009195286 -0.1649936 -0.0776455 -0.06468164
000100 9f d7 33 3c 79 b1 91 bd 39 fe a4 3d 34 ba fc 3d
       0.010976701 -0.07113928 0.080563016 0.12340203
000110 46 ab cd 3b 8c ba e7 bc 76 a7 fc bc f8 d6 ce 3d
       0.006276521 -0.028287195 -0.03084157 0.10099596
000120 9d 68 01 be 60 92 0d be f3 f7 3a 3e 5a 1b c4 bd
       -0.12637563 -0.13825369 0.18258648 -0.095755294
000130 8c 10 08 bc 50 ec 3d bd 1b fd b5 3d 49 22 78 3d
       -0.008304726 -0.046367943 0.08886167 0.060579572
000140 fc b1 ef bd 11 85 b1 bc 3f f0 0b 3e 05 db 3c bd
       -0.1170387 -0.021669896 0.13665865 -0.04610731
000150 cb 20 4f 3e 3c a7 8c bd 89 74 cd bc 96 d4 c4 bc
       0.20227353 -0.06867835 -0.025079982 -0.02402715
000160 72 78 79 bd fd 5b 92 3d 3b f7 cf bd f3 0f e2 bd
       -0.06090588 0.071464516 -0.10154577 -0.11038198
000170 aa ad fa bd 3c c3 94 bd 2b 40 e6 bd 24 fe 42 be
       -0.12240155 -0.072638005 -0.11242708 -0.1904226
000180 9f f8 77 bc 23 13 8c bd 08 d5 f1 bb 17 3c 84 3d
       -0.0151349595 -0.068395875 -0.0073801316 0.06456774
000190 96 73 a9 3d aa 3c f5 3d da 6b b1 3c 36 fe d5 bc
       0.082739994 0.119744614 0.021657873 -0.026122194
0001a0 5e c7 24 3d a1 69 41 bd e4 be ff bd cd e4 d3 3d
       0.040229194 -0.047219876 -0.12487581 0.10346375
0001b0 6a 99 b4 bd 7d 7c 14 3e ca fb 40 bd 0c a0 00 3e
       -0.08818324 0.14500614 -0.047115125 0.12561053
0001c0 b2 00 24 be 7e 88 5c bb 76 5c 30 be 39 fd 2e 3e
       -0.1601589 -0.0033650692 -0.17222771 0.17088784
0001d0 18 06 1b bd b3 cc 2e be 83 d3 3c bd c1 8a 22 bd
       -0.03784761 -0.17070274 -0.04610015 -0.039683107
0001e0 53 81 1e bd 5a 55 3a 3d 28 19 22 be a2 2f ed bb
       -0.038697552 0.045491554 -0.15829909 -0.0072383443
0001f0 b9 ae 87 bd e3 93 c5 3d d7 53 26 3e 39 da a1 3c
       -0.066251226 0.09647348 0.1624292 0.019757377
000200 8c 7e 33 bc 84 db 2d 3d 76 ee 13 be 4b cb 60 3d
       -0.010955464 0.042445675 -0.14446434 0.054881375
000210 64 1a 1a bc 26 66 8a bd 40 43 c3 3d b0 ba ab 3d
       -0.009405706 -0.067577645 0.09534311 0.08385217
000220 c0 0d 65 3d da 24 2b bd 7a 6f 46 3d 27 72 46 3d
       0.055921316 -0.04178319 0.048446156 0.048448708
000230 33 b0 3c be 12 32 07 3e 85 04 91 3d 0d 01 13 3d
       -0.1842659 0.13202694 0.0708094 0.035889674
000240 2f 57 14 3e 7f b4 69 3d 81 2c 05 be 74 b2 05 be
       0.14486383 0.0570569 -0.13005258 -0.13056356
000250 e2 96 f0 3c cf 8d d2 3c 17 f2 ef 3d 1e 38 d8 bd
       0.029368822 0.025702385 0.11716097 -0.105575785
000260 22 7e 00 3e dc a1 35 be d9 b6 9d bd bf 1f 0e 3e
       0.12548116 -0.17737526 -0.07700891 0.13879298
000270 98 18 a9 3d c4 33 4a bd c2 09 e0 3d 08 34 b0 3d
       0.08256644 -0.049365774 0.10939361 0.08603674
000280 dc 15 e3 bd 65 18 e4 bc b1 6a df 3d 7a 9d 24 bd
       -0.11088154 -0.027843663 0.10909022 -0.040189244
000290 b4 13 cf 3c 5b c7 9e bb fe 0a ac bd a0 a7 ba bd
       0.02527795 -0.0048455424 -0.08400534 -0.09114003
0002a0 cd a5 32 3e ed 4b 05 be 32 9a 2e bd c9 89 4c bc
       0.1744606 -0.13017245 -0.04262752 -0.012484022
0002b0 dc 25 55 3d 35 44 34 be 15 32 e4 bd 65 32 1b 3e
       0.05203806 -0.17604144 -0.11142365 0.15155943
0002c0 79 fe 33 be 9d d3 0b 3e e2 a6 1b 3c 4c f4 09 3e
       -0.17577542 0.13654943 0.009500237 0.13472098
0002d0 bd 30 40 be 09 36 9c bc 79 3d 4b bd 72 8d 0f 3d
       -0.18768592 -0.019068735 -0.04961917 0.035047002
0002e0 f3 58 f4 3c ca 9f d3 3d 5b 0c fe bd b3 73 e5 3d
       0.02982757 0.10333212 -0.124047 0.112037085
0002f0 4c 54 22 3e d7 eb d3 bd d7 ae b1 bd 29 56 39 3d
       0.15852469 -0.10347717 -0.08675926 0.045248184
000300 cd 7a 94 bd cc a9 da 3d d5 83 93 3d 40 97 20 3e
       -0.07249985 0.106769174 0.07202879 0.15682697
000310 32 03 a7 3d 35 fa 99 bc 9c 67 e3 3d 27 bb 88 3c
       0.08154906 -0.018796066 0.11103746 0.016690804
000320 cf db f0 bc 80 88 3d bc a1 76 8c 3d 4b cd a2 3d
       -0.029401688 -0.011568189 0.06858564 0.07949313
000330 72 03 f0 bc 4d 23 1d 3e 11 0f 9b bb dc 65 00 be
       -0.029298518 0.15345497 -0.0047320207 -0.12538856
000340 6e 7e 00 3e d9 02 8e bb ef 04 3b 3e 7b fc 83 bd
       0.12548229 -0.0043338356 0.18263601 -0.06444641
000350 8e 54 a8 3c e0 79 15 be 69 63 cf 3c 33 dd 0c be
       0.020548131 -0.14597273 0.025315957 -0.13756256
000360 62 bc bd bd 24 56 d8 3d 60 3e 96 3d c1 86 0a 3e
       -0.09264447 0.10563305 0.07336116 0.13527967
000370 6b 5c fb bd ee 75 07 3e 1a d8 1f 3d 57 fa 36 be
       -0.12273487 0.1322858 0.03902445 -0.17868935
000380 34 0d 45 be 7c 7d 0a bd c4 aa 37 3e ed f2 9c 3d
       -0.19243318 -0.033811077 0.17936236 0.07663522
000390 9f f2 ba bd 6f e7 d6 bd 7e 90 08 3e da 79 17 3e
       -0.091283076 -0.10493361 0.1333637 0.14792576
0003a0 da df 86 3d cb 54 bc bb 85 f1 3b 3e 11 4d 1e bc
       0.06585665 -0.005747413 0.18353851 -0.009661929
0003b0 ea b3 a4 bd 99 1d 2d be 16 d4 62 bd f7 bf 38 3e
       -0.080421284 -0.16905822 -0.055378042 0.18041979
0003c0 60 7e b1 3d 51 1b 22 3e 39 55 1b 3d a8 bc cc 3d
       0.08666682 0.15830733 0.03792307 0.09996921
0003d0 69 7c 8e 3d 5d 89 05 bd 48 f2 01 be 33 36 48 be
       0.06957323 -0.032601703 -0.12690079 -0.19551925
0003e0 a9 fa 2b be 67 9d ce 3d da 37 37 be aa 43 7c bd
       -0.16794838 0.10088616 -0.178924 -0.061587967
0003f0 83 28 b8 bd 19 a9 4e bd 5d 8f 95 bd 30 90 46 3e
       -0.08992102 -0.050454233 -0.07302735 0.1939094

bias f4 [60]
000000 5c 11 5d 3d 6c 12 1f bd 33 44 89 3d 5c 98 8f 3d
       0.053971633 -0.038835928 0.06702461 0.07011482
000010 df c8 40 3d d3 af ba bd 30 36 ee 3d de 94 dc 3d
       0.047066566 -0.09115567 0.11631429 0.10770582
000020 a7 e3 10 3e 2f 86 18 be a0 22 26 bd 1f 45 63 3c
       0.14149342 -0.14894937 -0.040560365 0.01387146
000030 05 22 00 be f4 1d ce bd 58 3c a4 bd b4 64 18 be
       -0.12512977 -0.10064307 -0.08019322 -0.14882165
000040 91 1b c2 bd eb c7 1d bd 4d da db 3d c6 71 c5 3d
       -0.09477914 -0.038520735 0.10734997 0.09640841
000050 75 4f 0d 3e 47 94 25 be ce 88 34 3d 0a cb f1 bd
       0.13799842 -0.16169845 0.04407578 -0.11806305
000060 84 84 dc 3c 9f 44 a5 bd da 2f 3b 3d dd 64 49 3d
       0.026918657 -0.08069729 0.04569993 0.049168456
000070 b1 25 0f 3e 04 91 58 bd e4 6c 7d bd 62 64 e3 bd
       0.13979222 -0.052872673 -0.061871424 -0.11103131
000080 b1 0f 04 3d e9 3a eb bd e3 82 26 bc e2 9a 27 3e
       0.032241527 -0.114858456 -0.010163042 0.16367677
000090 fb 76 04 3e c3 c6 a7 bb 22 92 5b 3d 44 95 0d 3e
       0.12936012 -0.00512013 0.05360616 0.13826472
0000a0 03 5e 69 bc 75 e6 f0 bb 6f 32 7c 3d 36 46 b0 bd
       -0.014243606 -0.0073516914 0.061571535 -0.08607142
0000b0 37 c0 c1 bd 5c ca cf 3d 69 73 2a 3e cf e7 49 bd
       -0.0946049 0.10146019 0.16645588 -0.049293336
0000c0 1b 63 e4 3d 1d 83 94 bd 68 dc 14 3e 74 11 ff bd
       0.11151715 -0.072515704 0.14537203 -0.12454501
0000d0 2b 81 b8 3c 8a e0 ae 3d 96 d0 16 3e 25 ee 2e be
       0.02252253 0.08538921 0.14728007 -0.17083032
0000e0 67 ce 8a bd cb 9c 39 3e 00 92 1c be 79 99 83 3d
       -0.067776494 0.18126218 -0.1529007 0.06425757

weight f4 [120, 60]
000000 61 d8 fa 3d be c5 17 3d a4 11 e7 3d 9b 1a ab 3d
       0.12248302 0.037053816 0.112826616 0.08354684
000010 57 54 d2 bd 19 2a 84 bd 55 d3 60 3d 77 ab 90 bd
       -0.10269993 -0.06453342 0.054889042 -0.07063954
000020 53 05 8d bc d6 6c d7 3d 7c da 82 bc d5 35 0f bc
       -0.017214453 0.10518806 -0.015973322 -0.008740862
000030 ae d9 0c bd 0b 6a de bd eb be c1 3d ca 81 39 3b
       -0.034387283 -0.1086007 0.09460243 0.002830612
000040 16 68 98 bc f0 86 ab bc 17 52 a6 3d 72 08 ff bc
       -0.01860432 -0.020938367 0.08121126 -0.031131957
000050 44 67 2f bd 9a 51 93 bd 4f 29 e4 3c c3 26 7a 3d
       -0.04282309 -0.07193299 0.027851729 0.061072122
000060 78 07 37 bd bb 00 1d 3d 7a 08 49 3d 55 be d2 3c
       -0.044684857 0.038330775 0.04908035 0.025725523
000070 17 cb ab bd 6a 44 99 bc 4d c3 ab 3d bd fb c1 3d
       -0.08388346 -0.01870938 0.0838686 0.094718434
000080 8e b7 3b 3b e2 f9 6c bd 31 89 e1 bd e0 a0 36 3d
       0.0028643343 -0.057855494 -0.11012495 0.044587016
000090 fd 11 f3 3d 30 a5 5b bd c7 be f4 bd 56 c6 f4 3b
       0.11868665 -0.053624332 -0.119504504 0.0074699325
0000a0 fa 11 5d bd 3e 5e 3d bd b9 e3 c9 3d 17 b0 b3 3b
       -0.053972222 -0.046232454 0.09857888 0.005483638
0000b0 a3 c1 c7 3d 20 66 35 bd db 23 2d bd b9 65 b5 3c
       0.0975373 -0.044286847 -0.042270523 0.022143232
0000c0 61 28 06 3b c3 03 95 3d 38 27 b4 bc 9a d6 18 bc
       0.0020470845 0.07276108 -0.021991357 -0.009328509
0000d0 24 f5 5f 3c c1 a7 89 bd da 8c f2 3d 6d be 17 3c
       0.013669286 -0.0672145 0.118432716 0.00926171
0000e0 1b ed 61 3d a3 53 a1 bc 1f ae b6 bd d3 ef 90 3d
       0.055157762 -0.019693201 -0.0891993 0.07076993
0000f0 aa c9 6b bd 74 42 d4 bc 15 5b 20 3d 0d 18 73 bd
       -0.05756537 -0.025910594 0.039149363 -0.05934911
000100 12 71 1d 3d 63 9f fd 3d 88 78 33 3d fe 99 3e bd
       0.03843791 0.12383916 0.04381612 -0.046533577
000110 0d 63 52 bd 5b ae f4 3d ed c8 eb 3b fc 85 7f bd
       -0.051363993 0.11947318 0.007195583 -0.062383637
000120 05 5d 21 bc b9 8a 93 3d 02 d1 49 3d ee 12 41 bd
       -0.009848838 0.072041936 0.04927159 -0.047137193
000130 98 a1 5f 3d 50 ae af 3d de e1 d7 3c ca ee 72 3d
       0.054597467 0.08578169 0.026352819 0.05930976
000140 79 76 84 bd 2c a3 d2 3d ab 4c e0 bd 8e 5e 72 bc
       -0.06467909 0.10285029 -0.10952123 -0.014793051
000150 77 e5 bc 3d 45 f1 f2 3d bb 00 b7 bc c0 32 fc bd
       0.092234544 0.11862425 -0.022339216 -0.12314367
000160 e4 fe a2 3d af 7f 27 3c b9 ef bf 3d 64 61 cc bd
       0.07958773 0.010223313 0.09371895 -0.09979513
000170 30 e4 d2 bb 72 94 f0 3d 6b 72 18 3c 76 5c e7 bb
       -0.0064358935 0.11747064 0.009304623 -0.0070605827
000180 5f 1e 94 bd 96 2c e7 3d 12 94 5c bd 68 09 7a 3d
       -0.07232355 0.11287801 -0.05385215 0.061044127
000190 e5 fb f7 3d 5a 83 c9 3d df 4f ed bd 34 55 d6 bd
       0.12108592 0.098395064 -0.115875 -0.1046547
0001a0 00 fb 6f bc 87 cb 94 bd 0e 45 b1 3d 0d 3f 08 bd
       -0.014647245 -0.07265382 0.08655749 -0.033263255
0001b0 47 4c 77 bd 63 1e b2 3d 1b 11 1b 3d 30 84 29 bd
       -0.060375478 0.08697202 0.03785811 -0.04138583
0001c0 2d 1d 52 bd 8f 63 8f 3d c4 b5 8f bd 75 81 92 3d
       -0.051297355 0.07001411 -0.07017091 0.07153598
0001d0 fd 6d 42 3d 43 ce 3b bd 71 8b 88 bd 3e 42 96 3d
       0.047468174 -0.045851003 -0.06667221 0.073368534
0001e0 8f cd 46 bd 65 6a de 3d 5c b8 5e bd 89 f0 93 3d
       -0.04853588 0.10860137 -0.054375038 0.07223613
0001f0 f6 e8 85 3d 31 eb 91 3d b6 d6 04 3d 35 ca e2 bd
       0.065385744 0.07124937 0.032431327 -0.11073724
000200 cd 77 f9 bc e2 e9 c7 3d 7b a4 de bd 94 d0 99 bc
       -0.030452633 0.097614065 -0.10871216 -0.018776216
000210 7a 03 bc 3d fe 42 cd 3c dd 98 22 3d 73 4a ee bd
       0.091803506 0.025056358 0.039696563 -0.11635294
000220 9b ae e9 3d a5 0f 6d 3d 1e 6c a6 3c ce 3e a5 bd
       0.114102565 0.057876248 0.020315226 -0.0806862
000230 e2 99 09 be b3 e8 2d 3d 60 0d 44 3d bf a1 24 3d
       -0.13437608 0.042458247 0.047864318 0.040193316
000240 d9 f6 ed bc 1c c2 8d bd f8 ba eb bd 1a 29 56 bd
       -0.02904837 -0.06921789 -0.11510271 -0.05228529
000250 29 85 5f bc d9 e4 91 bc c7 3b 98 bc 95 1e d7 bd
       -0.013642588 -0.017809318 -0.018583192 -0.1050388
000260 a6 02 68 3d ed 87 60 3c bb ca 04 be a9 b7 f1 3d
       0.05664315 0.013704282 -0.1296796 0.118026085
000270 ba 41 8e 3b 3d af 0e 3d d3 0d 1d 3d f9 0d 00 3e
       0.0043413313 0.03483509 0.038343262 0.1250533
000280 9f fa b2 3c b7 bb 5d 3d a2 5a 53 3c dd b4 22 3d
       0.021848021 0.054134097 0.0129000265 0.039723266
000290 8d 8b 8c 3b 46 a6 ef 3d f2 4c 2d 3d f1 14 15 3d
       0.0042890967 0.11701636 0.04230971 0.036396924
0002a0 5a 89 db 3d 95 c9 f2 3d 9a c6 15 3e fc 0e f5 bd
       0.10719557 0.11854855 0.14626542 -0.11965749
0002b0 5f d0 b0 bd 46 98 12 bd 3d 93 ec bd b7 2f 04 bc
       -0.08633494 -0.03578975 -0.11551521 -0.008068017
0002c0 9c 95 f8 3b fe 71 71 3c 75 ab b2 bd 64 31 02 3a
       0.007586194 0.0147366505 -0.08724109 0.0004966466
0002d0 02 3f 8f 3c 4e 20 05 be 67 c7 d2 bd 62 a1 2b bd
       0.0174861 -0.13000605 -0.10291939 -0.041901954
0002e0 11 70 bd 3c 35 2a e0 3c 97 15 5a 3c c7 36 b5 3c
       0.023124726 0.027363876 0.0133108115 0.022120846
0002f0 ef 69 9e bd 31 f3 3f 3c b8 1c d3 bc fe 68 aa bd
       -0.07735049 0.011715696 -0.02577053 -0.08320807
000300 59 4e f2 bd 36 e2 2e bd 1e 07 b9 bd 71 fd 3f 3d
       -0.1183135 -0.0426962 -0.090345606 0.04687256
000310 9a b6 02 bd 8a a3 4f bd d1 cd f1 bd fb 7f ef bd
       -0.031912424 -0.050693072 -0.118068345 -0.11694332
000320 58 38 b0 3d fd 5e a2 3c 28 67 4a bd 28 88 98 3d
       0.08604497 0.019820685 -0.049414784 0.07447845
000330 62 15 dd bb 08 03 96 bb d2 e4 1e bd 8a 7c 92 3d
       -0.006746934 -0.004577998 -0.03879244 0.0715266
000340 ab 7f 71 bc 09 66 95 3d 2a 2d 36 bd ea 63 af bd
       -0.014739911 0.07294852 -0.044476666 -0.08563979
000350 42 e6 a7 bd d7 39 87 3c 34 59 41 3d d4 b6 c8 3d
       -0.08198215 0.016507072 0.04720421 0.09800497
000360 4e db 30 3d 4f 67 dc 3d 5e 92 cd bd f0 1b 22 3d
       0.043177895 0.10761892 -0.10037683 0.039577425
000370 af 90 e9 3c f1 14 d9 3d 02 3e df 3d 32 8c 50 bd
       0.028511373 0.105996974 0.10900499 -0.05091495
000380 4a 76 2f 3d 31 24 ca bd a5 a2 b4 bd 8b 2e 75 3d
       0.04283742 -0.09870184 -0.088200845 0.05985884
000390 68 5a a6 bd 3b 2e 8f bc 72 96 04 3e 8e af ad 3d
       -0.081227124 -0.0174781 0.12948015 0.0848075
0003a0 8a 9a aa 3c 1f 41 b1 bb d1 8e 0d 3d 7d 15 0f bc
       0.020825643 -0.0054093744 0.03456003 -0.008733151
0003b0 0b 15 36 bd b9 61 64 bc 87 d6 9d bd c2 42 89 bb
       -0.044453662 -0.0139393145 -0.077069335 -0.0041888664
0003c0 69 7e d4 bd 66 90 f8 bd 65 a6 ce bd 41 47 bf 3d
       -0.10375673 -0.12136917 -0.10090331 0.093397625
0003d0 26 1f 36 bd 64 ba 21 bc dd 68 48 bc 34 93 d9 3d
       -0.0444633 -0.009871099 -0.012232033 0.1062378
0003e0 65 83 6b bd a0 c6 a7 3d bf 8b a8 bd 5e 9c a4 3d
       -0.057498354 0.081921816 -0.082297795 0.08037637
0003f0 8c 60 d3 bd 18 29 d3 bd f3 47 bc 3d b6 3f a6 bd
       -0.10321149 -0.103105724 0.09193411 -0.08117621

bias f4 [120]
000000 be f7 81 bd 08 86 4b bd 7c fd 0f 3e 1c 9e f1 3c
       -0.06346081 -0.04968837 0.1406154 0.029494338
000010 49 34 2a bd ae ba ee 3d da 7c 04 be ed ca 34 bd
       -0.04155377 0.116567 -0.12938252 -0.044138838
000020 e5 cc 27 3d e8 52 3d bd c1 d0 d8 bd b6 10 33 bd
       0.040966887 -0.046221644 -0.10586692 -0.04371711
000030 07 f4 e8 bc 11 0d ff 3c ec 0b 5d 3d f9 8f 57 3d
       -0.028436674 0.03113416 0.053966448 0.052627537
000040 70 80 54 3d ff 98 81 bd 0f be 78 bd 90 34 9f bc
       0.0518803 -0.0632801 -0.06072813 -0.019434243
000050 d4 cb d3 3d 12 db 39 3d 35 be 11 3e c0 df d0 3d
       0.103416115 0.045374937 0.14232714 0.10198927
000060 bd 6a ac bd 03 00 01 3e a4 93 2a bd a0 c3 7d 3d
       -0.08418796 0.1259766 -0.041644707 0.06195414
000070 42 e9 90 3d 10 c3 e4 3c 98 07 19 bd 8d 15 4c bd
       0.070757404 0.027925044 -0.037360758 -0.04982524
000080 5a 44 4e 3d b3 42 cf bd 04 08 c9 3d f6 3d 6c 3d
       0.050358154 -0.10120144 0.09815982 0.057676278
000090 50 ee 5d bd 2f 4c 89 3d 55 55 9b 3c a1 9c d0 3d
       -0.05418235 0.06703984 0.018961588 0.101861246
0000a0 db 1d 83 3c 60 53 a9 3d c5 4c e7 3d cf f0 1f 3d
       0.016005447 0.08267856 0.112939395 0.039048012
0000b0 1e c1 cd bd 71 fb e0 3d 9f 43 7c 3d 1a 15 a5 bd
       -0.100466 0.10985459 0.061587926 -0.080606654
0000c0 e4 d8 56 bd 0e be c5 3d f9 b8 f4 3d 44 87 f5 bd
       -0.052452937 0.09655391 0.11949343 -0.119886905
0000d0 23 b2 9e bd c8 e8 45 bd 49 89 a1 3d 19 9d 42 3d
       -0.07748821 -0.0483177 0.07887513 0.0475131
0000e0 31 d3 d7 3d 7d 7a 23 3e 86 5d 33 bc c0 53 a2 bd
       0.105383284 0.15964694 -0.010947591 -0.0792613
0000f0 ad ef dd bd 73 b0 fe 3c ad 7d 30 bd 31 73 6d bd
       -0.1083673 0.031089997 -0.043088604 -0.057971183
000100 eb 39 b7 3c 28 c8 1f 3d 15 89 ca 3d 86 5b 84 3d
       0.022366485 0.039009243 0.098894276 0.06462769
000110 5d 5a 72 3c 9d 30 25 bd 2f d4 ae 3c 70 59 07 3c
       0.014792052 -0.040329564 0.021341411 0.00826107
000120 7f d4 bf 3d fe 7e c9 3d 13 25 fe bd 0c bc 43 3d
       0.09366702 0.09838675 -0.12409415 0.047786757
000130 dc db bf bd 91 f1 0e bd d6 3a 82 bd 06 f2 03 3e
       -0.09368107 -0.034898344 -0.06358878 0.12885293
000140 a3 55 76 bd 7d 06 ae 3c 4a c1 c5 3d 7e f8 6a bd
       -0.060140263 0.021243328 0.096560076 -0.057365887
000150 67 70 41 bd 1d 68 fa bd 54 0d 9f bd 40 3e 9f bd
       -0.047226336 -0.12226889 -0.07766214 -0.07775545
000160 84 a8 c8 bd 79 88 09 be 7d ec c9 3d 38 e1 9d bd
       -0.09797767 -0.13430966 0.0985956 -0.07708973
000170 7f 93 c2 3d ed 1a 5a 3c 55 85 4a 3b 23 09 84 3d
       0.09500789 0.013312084 0.0030902226 0.06447055
000180 2c 22 22 3b a8 14 e1 bd 1f 83 21 bd 5b 14 7f 3d
       0.0024739606 -0.10990268 -0.039431687 0.062275272
000190 05 cb b8 3c b3 cb 11 bd 62 42 a9 3c 3e 9b e9 bd
       0.022557745 -0.035594653 0.020661537 -0.11406563
0001a0 de 26 bc 3d be a1 1e bd 57 27 5f 3d 32 41 e0 3d
       0.09187101 -0.038728468 0.054480877 0.10949935
0001b0 17 fe 86 bd 05 c5 5b 3c 67 e5 dc 3c 37 26 fc 3c
       -0.065914325 0.013413672 0.026964856 0.030779941
0001c0 bc 91 f0 bd 19 14 b8 3d af 33 c2 3d 2f 0f 46 bd
       -0.117465466 0.08988208 0.09482514 -0.048354324
0001d0 b8 3e cd bd ed 06 19 bd e8 df f3 bd 51 40 b3 3d
       -0.10021728 -0.03736012 -0.11907941 0.08752502

weight f4 [8, 15]
000000 04 ed 79 3d 44 20 95 be bd a3 d4 bc 27 f7 80 be
       0.06101705 -0.2912618 -0.025956983 -0.25188562
000010 b1 e1 c9 3c 43 07 eb bc 54 ca 31 be 80 8a a9 bd
       0.02464375 -0.028689986 -0.17362338 -0.0827837
000020 26 35 35 3c c9 cd 33 3e b7 86 19 be fa 24 20 3e
       0.011060035 0.1755897 -0.14992796 0.15639105
000030 6e 52 72 3e 64 a1 04 be 64 66 36 3e 37 f3 1c 3e
       0.23664257 -0.1295219 0.17812496 0.15327154
000040 4a a0 82 bd e0 f3 6b 3d 6f 86 09 3e 26 bf 05 be
       -0.06378229 0.057605624 0.13430189 -0.13061199
000050 c0 38 23 3e db 14 00 3e 15 e3 99 3d 78 8f e3 3d
       0.15939617 0.12507956 0.075140156 0.11111349
000060 f6 dc 42 3e fb 5b 55 3e 58 2c 1e be 09 6e 60 3d
       0.19029602 0.20835869 -0.15446603 0.054792438
000070 d6 4a 12 3e 3c 5b 07 be ad 7c 20 3e 72 c2 78 3d
       0.1428636 -0.13218397 0.1567256 0.060732313
000080 09 a8 8f bd 88 af 1d bd 29 49 9e 3e 9c 7c 3f be
       -0.07014472 -0.038497478 0.30915192 -0.18699878
000090 76 e8 71 3e 39 f1 25 3e 5b 55 36 be e6 cc 04 be
       0.23623833 0.162053 -0.17805998 -0.12968788
0000a0 e7 73 11 be 42 93 26 be 43 5a 29 3e 90 b5 aa 3d
       -0.1420437 -0.16267112 0.16538338 0.083354115
0000b0 41 50 7b 3e 10 96 a9 3b 89 d0 a5 bd ef cf e2 bd
       0.24542333 0.0051753595 -0.080964155 -0.110748164
0000c0 e2 df 2c 3e 08 9a 0e bd 34 13 81 3e de f2 6d 3e
       0.1688228 -0.034814864 0.25209963 0.23237178
0000d0 8d 80 d6 3c 57 cf d7 3d 9c 95 b6 3d 9f 14 8f 3e
       0.026184345 0.10537594 0.089152545 0.2794542
0000e0 8c be 17 be 93 01 02 3e bd 95 7b bd 1b b0 08 bd
       -0.14818782 0.12695913 -0.0614221 -0.033371072
0000f0 80 b4 73 3e ac fd ed be 3c 4a 8f 3e 1f 49 9c be
       0.23799324 -0.464826 0.27986324 -0.30524537
000100 af 0a 87 be b0 f1 14 3e a6 6a 9c be 4c e9 56 3e
       -0.26375338 0.14545321 -0.30550116 0.20987433
000110 a5 49 bc 3d 07 18 28 3e 85 6f 33 3d 3d db b9 be
       0.09193734 0.16415416 0.043807525 -0.36300078
000120 61 33 18 3e 0e d7 18 3b ed ad 5b 3d 32 ce 26 be
       0.1486335 0.0023321542 0.053632665 -0.16289595
000130 c4 25 52 3d 24 c1 50 bc 2b 34 81 3d db 3e 1b be
       0.051305547 -0.012741361 0.063087784 -0.15160696
000140 2d 17 5c be e5 00 5c 3e b2 41 ed bd 12 04 f1 bd
       -0.21493216 0.21484716 -0.11584796 -0.117683545
000150 2a b0 7e be e5 4f c3 bd 92 13 f3 3d 94 27 7c 3c
       -0.24871889 -0.09536723 0.11868967 0.015390296
000160 59 cb 80 be a9 b1 ae 3c 91 53 5a 3e 57 fe 8a be
       -0.25155142 0.02132495 0.2132094 -0.2714717
000170 ae f7 37 bc 40 1f 2d bc b1 ca 4f 3e d1 5b e1 bd
       -0.011228485 -0.010566533 0.20292164 -0.11003841
000180 9e cd 12 be 8d de ea 3d 77 67 4d 3d 73 5c 94 bd
       -0.14336249 0.114682294 0.0501475 -0.07244196
000190 14 07 85 be 4e f9 61 be 1f b8 3b 3d 74 6d 2a 3d
       -0.25981963 -0.22067758 0.04582989 0.04160829
0001a0 b4 4f 9b 3d 63 b6 0d 3d 9a c6 8f 3d 32 e7 ae bd
       0.075835615 0.034597766 0.07020302 -0.08540191
0001b0 62 33 09 be fd cc ec bd e2 74 84 be 87 1f 2f 3b
       -0.13398507 -0.11562536 -0.25870425 0.0026721673
0001c0 07 dc 54 3e 4a 53 a9 3d 3a 39 63 3c d1 02 3e 3e
       0.20787059 0.08267839 0.013868624 0.18555762
0001d0 b7 fc 8e be 25 06 23 3d 69 86 89 3d bd 33 60 3e
       -0.2792718 0.03980078 0.0671509 0.21894737

bias f4 [8]
000000 5a a8 80 3e d8 33 17 be 2b ba 02 bd 2f 01 e6 bd
       0.25128442 -0.1476587 -0.031915825 -0.112306945
000010 11 82 2c 3e 43 3f 13 3d 08 7a 14 3e 9f 0d ba bd
       0.16846491 0.035949003 0.14499676 -0.09084629

weight f4 [1, 4]
000000 4a 77 b3 3e a1 7c a1 be b2 a1 38 3f da c5 91 3e
       0.35051948 -0.31540397 0.7212173 0.2847126
