01_networks/models/Network00_trainedoneclass.tar (torch_old, 45307 bytes, 9 tensors)

weight f4 [30, 15]
00000000: 633a 06be dca9 813e 973f 2f3e b262 15be
00000010: adab 31bc 6b19 b4bd 2de4 19be 8eee 323e
00000020: 4412 4dbe 8261 67be a335 d5bc 99c9 d73d
00000030: 07ae debd b9f4 c33d 881b adbd 7d11 f43d
00000040: 5a5b d53d d96b 6bbe 16df d5bb 3880 9cbd
00000050: 1638 78be 42a1 78be 0ed0 23be a444 d9bd
00000060: 06e8 bd3c eb84 1abe e9bb 7abe 8d6c 21be
00000070: d424 083e 6144 96bd 2240 ebbd d580 b4bd
00000080: f290 2f3e 45a6 6a3e 41a8 463e 31c1 9d3d
00000090: 7513 613d 5b85 4fbe b7d7 223e ac28 483d
000000a0: 803d 51be a576 193e 0079 67bc 25be 0fbe
000000b0: 6e0f 34be 5e1e 643e e043 00be 196d f93d
000000c0: 87d9 803e 1c57 773e 790e 853c 42bd ec3d
000000d0: 7e65 70be 306a d8bd 4bc3 c7bd 0239 5ebe
000000e0: 0c76 223e a2a7 4bbe f795 333e db0a 18be
000000f0: a9ff 803e 2c35 48bd 2e5c e83d 3003 bebd
00000100: ba64 dabd e024 083e 5bf8 6b3d 8133 b43c
00000110: 15c7 38be 0738 563e b390 283d 7da3 6f3c
00000120: e0e7 71be df85 6b3e ab71 f2bd 53d2 d6bd
00000130: 43fb 243e 9518 3ebd c5a2 5abe 91c3 a93c
00000140: 73ad 18be f238 56be 533e 573e c916 2dbe
00000150: b193 473e 429c 413d 39a7 4ebe 24e9 42be
00000160: dff2 29be f8ee c23d 029b 783e 7408 4f3e
00000170: ba74 393e 876d 313e fec3 d03d d0cb 9c3c
00000180: 51a5 793e 8f55 cb3d f169 28bc 0643 4ebd
00000190: 436a 11be ccec 32be 37b8 833e 1029 f93d
000001a0: a8ea 6abe af44 3d3d aa31 60be 4a95 fdbd
000001b0: f528 39be c162 ebbb c36d 483e 1127 04be
000001c0: 8c1b 793e bcde 80bc e4b5 5fbe eb07 313e
000001d0: cb2d 273e 3a98 3fbe ec7e 273e 8b07 25bd
000001e0: 0f1b 323e 9c83 743e 6acf c4bd f540 823e
000001f0: b518 4cbe addd 7c3e 0bd6 e33d 2e68 1bbd
00000200: 0320 7d3e 45e9 6f3d 6901 3a3e e693 783e
00000210: 7039 543e 6be8 9fbd 8d01 193d 728c e83d
00000220: 439e f33d c4a0 1ebe 5d78 4a3d 496d d6bd
00000230: e087 7bbe 65c3 9a3d 5ed2 a53c c18f 753e
00000240: c442 a0bd abed a0bd e948 cfbd 0f8a 80be
00000250: 06f5 10be 6911 4b3e 6a20 7c3e eb85 06be
00000260: bcd8 40be 3881 14bd e737 38be 765a 77bc
00000270: b2ba e8bc 947e 72be 8c5b 07bd 31e1 353d
00000280: c535 71be a2de 05bd 31b0 1bbe b162 053e
00000290: 700b 493e 2a22 5ebe d01e 77be e65e 9e3d
000002a0: 1a44 223e 934c 23be 94a1 47bd 905a 133e
000002b0: 4243 08be c4c9 513e e738 3a3e f677 523e
000002c0: be91 373e bb0b e2bc 73b3 5f3d c256 5f3e
000002d0: 5850 08be 048a cbbd 7032 0abe f929 d7bd
000002e0: 26f9 5a3e 5366 083c acc8 033e 4e3f 21be
000002f0: 44e6 773e aa47 433e 3b5c 4b3d 18fa 67be
00000300: b556 5a3c be91 403e d524 17be 1b17 423e
00000310: 983c 9c3d aae4 3d3e 6f57 6cbe 8888 183e
00000320: 7121 5a3e cf8f f3bd cbfe 333e d363 043d
00000330: 351f 6bbe 48ed 1ebd 640d b43d 7491 e4bc
00000340: 580e 0abd e1c8 a43d a726 2e3e f715 bcbd
00000350: 7ef3 9a3d a4f0 33be 7061 cebc e9c0 503e
00000360: 6c34 b9bd 6c20 193e 67f0 2dbe b0ee acbc
00000370: 81ef 68bd 254d 353e ff0e 91bc 9154 b6bd
00000380: 060f 4bbe 0cd9 6bbe c0f0 8a3d ae63 3c3e
00000390: 338f 69be 0a97 f3bd c806 e83d 887d 9a3d
000003a0: aaf0 e43d 2a69 35be 4fae f83d 89ab cbbd
000003b0: 5474 f13d e459 853d f9da 7bbd 1787 03bb
000003c0: 6c4f e43d 8890 75be 0356 8f3d 6aac 5cbe
000003d0: e873 dd3d ea1c 273e bced 38be acce 933d
000003e0: b0ef 3a3e cb6a 42bc ed75 f13c 70eb aabd
000003f0: 9ac2 64be 7adc 813e d93a 813e 4bbd 313e
-0.1310821 0.25324905 0.17114101 -0.1458843 -0.010844153 -0.087939106 -0.15028448 0.17473814
-0.20026499 -0.2259579 -0.026026553 0.105364986 -0.10873037 0.095681615 -0.08452517 0.11917398
0.104178146 -0.2299036 -0.006526838 -0.07641643 -0.24240145 -0.24280265 -0.15997335 -0.10608795
0.023181926 -0.15089767 -0.24485745 -0.15764065 0.13295299 -0.07337261 -0.11486842 -0.08813635
0.17145136 0.2291499 0.19400121 0.07702864 0.054950196 -0.20265715 0.15902601 0.048866913
-0.20433617 0.14986666 -0.01412797 -0.14037378 -0.17584011 0.22277209 -0.12525892 0.12179012
0.2516596 0.24154323 0.016242253 0.115595356 -0.23476216 -0.10567129 -0.09754046 -0.21701434
0.15865344 -0.19888166 0.17537676 -0.14847891 0.25195053 -0.048878834 0.11345707 -0.09277952
-0.10663743 0.13295317 0.057609897 0.021997215 -0.18044694 0.2091981 0.04115362 0.014626381
-0.2362361 0.23000287 -0.11838087 -0.10489335 0.16111474 -0.046410162 -0.21351154 0.020723136
-0.14909916 -0.2092016 0.21019869 -0.16903223 0.19489934 0.04726816 -0.20180978 -0.19034249
-0.16596554 0.09518236 0.24277881 0.20218068 0.18110934 0.17326938 0.101936325 0.019140154
0.2437947 0.099284284 -0.010279165 -0.050356887 -0.14200692 -0.17473143 0.25726482 0.12166035
-0.22941077 0.04620808 -0.21893945 -0.1238199 -0.1808203 -0.0071834032 0.19573121 -0.12905528
0.24326915 -0.015731208 -0.2184673 0.17288177 0.16326062 -0.18710414 0.1635701 -0.040290397
0.17393135 0.2387833 -0.096098736 0.25440183 -0.199313 0.24693938 0.1112481 -0.03794115
0.24719243 0.058572073 0.181646 0.24275169 0.20725036 -0.07808002 0.037354995 0.11354913
0.118954204 -0.15491015 0.049431194 -0.10470063 -0.24563551 0.075568 0.020241912 0.23980619
-0.078252345 -0.078578316 -0.101213284 -0.2510533 -0.14155969 0.1983086 0.2462174 -0.13137023
-0.18832678 -0.036256045 -0.17990075 -0.015097251 -0.028409336 -0.23681098 -0.03304629 0.044404212
-0.23555668 -0.032683022 -0.1520393 0.13025929 0.1963327 -0.2169272 -0.24132848 0.07732944
0.15846291 -0.1594718 -0.048738077 0.14390016 -0.13306907 0.20487124 0.18185769 0.20553574
0.1792669 -0.027593484 0.054614495 0.21810439 -0.13311899 -0.09938434 -0.13495803 -0.105060525
0.21384105 0.008325177 0.12869519 -0.15746805 0.24208933 0.19070306 0.049648505 -0.22653997
0.013326337 0.18805596 -0.14760144 0.18954127 0.07628745 0.1854426 -0.23080228 0.14895833
0.2130182 -0.11892664 0.17577665 0.032321762 -0.22961123 -0.038800508 0.087916166 -0.027901389
-0.033705086 0.08046127 0.17006932 -0.09183877 0.07565974 -0.17572266 -0.025192946 0.2038609
-0.09043202 0.14953774 -0.16986237 -0.021109909 -0.056869034 0.1770521 -0.017707346 -0.089028485
-0.1982995 -0.23032016 0.06784201 0.183974 -0.22808532 -0.11894043 0.113294184 0.075434744
0.111787155 -0.17715898 0.12142622 -0.09944827 0.11789766 0.06511286 -0.061488125 -0.0020069533
0.11147961 -0.23980916 0.06998827 -0.21550146 0.10813123 0.16319624 -0.18059438 0.07217154
0.18255496 -0.011866282 0.029475177 -0.083456874 -0.2233986 0.25363523 0.2524021 0.17357366

bias f4 [30]
00000000: 9e95 793e b22e 85bd 0db6 f63d 9942 d9bd
00000010: 8d67 563e 57a6 07be c977 49bd f724 603e
00000020: 4839 64be 2e2a debd 06af 2fbe 1f47 103e
00000030: 4144 7b3e 3b7d bc3d 783e 7b3c 27fc c73c
00000040: 082c c4bc 4ea6 54be 4f3d 623e 52d3 71be
00000050: b1fe f6bd 252e 7fbe 76c2 92bc f11b 17bd
00000060: f593 7b3e e792 1c3e 87ca 0dbe 0352 83be
00000070: 7bc3 38be de03 66be
0.2437348 -0.06503047 0.12046442 -0.106084056 0.20937939 -0.13247047 -0.0491865 0.21889101
-0.22287476 -0.10847889 -0.1715661 0.1408963 0.24537756 0.09203573 0.015334718 0.024412228
-0.023946777 -0.20766565 0.220937 -0.23615769 -0.12060297 -0.24919946 -0.017914992 -0.03689188
0.2456816 0.15290414 -0.1384679 -0.25648507 -0.1804332 -0.22462413

weight f4 [60, 30]
00000000: 3f85 06be 83b6 1ebe b264 08bd 1c66 2e3e
00000010: 1267 8e3d 6a37 fabd ae9e c9bd 7d25 cebd
00000020: 18b4 d3bc e204 30be ec2d bd3c 90dc a03d
00000030: 6ed6 0dbe 5c5e 113e 4f6d a23d a7de 1a3b
00000040: 0bfa 73bd a5bf 3fbd cb0e 9d3d f3a1 c0bd
00000050: cf7a 62bd e632 47bb 66ab 793b 7847 2c3e
00000060: 26ec 5e3d 2f95 bf3d a96e e8bd 7358 29bd
00000070: bce8 76bd ea8e 1abe c55d 553d eb9f 313c
00000080: e30c 153e 7733 b03c 74f8 313e c368 7b3d
00000090: c60b a13d fb06 f33d 30b2 11be 446b 69bd
000000a0: 01eb efbd 01fc 943d 9662 023e 2d22 9f3d
000000b0: 55ee 15be cd91 0a3e 7e54 d4bd 18e1 3d3d
000000c0: b383 343e 971e fc3c 44dd 31be 8c21 07bd
000000d0: 99fb aabd e625 15bd 9db8 6abd 6db3 f8bd
000000e0: 8e44 c1bd 1eb5 6c3d ceae 1fbe 74c1 753d
000000f0: ae8e 23bd 018e 09be 38c0 afbc 1c8f b2bd
00000100: d00f be3d c13b 9f3d f28a e03d 4dc9 b5bb
00000110: 2747 38be 6d8a 1cbd f7d1 0dbd 6d80 0cbe
00000120: 62af c43d f6d5 e63d 1e31 353c d3de 1fbe
00000130: 0c94 ca3b d917 783d b765 20bd df06 4abc
00000140: 28dc f7bd 8e8e 4b3d 6365 05be cb87 fdbd
00000150: ab40 c6bd 0d7e bc3d ae40 793d 6ad1 f33d
00000160: 8cdb f7bc c337 113e 1a5e 10be 233f 16be
00000170: 3926 9b3d 03a0 0d3e 93cd f5bd 96aa ccbd
00000180: 16e0 443d 8175 2a3e 9659 b53d 00da d73d
00000190: 1fd1 18be 1f37 1b3e 1cb2 94bc 2d49 333e
000001a0: 4fbc 303e 5222 ce3c 5888 b7bd 66ad ed3c
000001b0: 7cab a8bd e041 1ebe 6796 96bc b717 0fbd
000001c0: 34cb 9d3d 9d93 17be 0ca7 8c3d f696 fbbd
000001d0: 40a1 ccbd 52c2 243c 1a23 9ebd 7c12 143e
000001e0: cd13 103e 91a1 d73d 20f9 20be 0b52 cabd
000001f0: b930 01be 7289 413d 9c4b 103e f21d 8cbd
00000200: ade9 abbd 5d76 e13d 3010 10be 0d47 2abd
00000210: 5834 07be 58e2 b13d b5e6 c6bd 6edc 0bbd
00000220: c1e4 9abd 5143 c73a 1d6e e9bd 4765 143e
00000230: 2d27 523d 03fc f7bc 6723 26be 01ac b4bc
00000240: b02f 6d3d dd95 d63c 6a3b ddbc fecd d93d
00000250: bbc3 1fbe e243 8cbc 05fd 253e 7db9 813d
00000260: 1c5a 4e3d e155 133e 0ace 9e3d cfa3 e93d
00000270: 1309 f23d 014a 073c 5cc2 13bc 4f67 09be
00000280: 18dc 823d 5316 2b3e fdc2 0a3e 339a a3bd
00000290: 9651 9dbd 6e75 e0bd ab57 61bd d227 fc3d
000002a0: 0abc 093e 55b7 e2bd 14ac 093e 5212 3abe
000002b0: 3473 00be 592e 55ba 2746 803c 00c1 fabc
000002c0: 71e6 f93d ba18 f73d a3b5 ab3d bd96 b93d
000002d0: 8b87 b83d 31b0 b0bc 6a26 053d bf54 093d
000002e0: a32b 11be 845c 16be bbcf 23be 99e1 58bd
000002f0: 8d6a 023e 6964 28be 0f55 5a3d 6b71 28be
00000300: 3556 49bc 16ae 863d d809 28bd eeee a5bd
00000310: 1797 d4bd e88b f23c fb13 363e 0f6e 8a3d
00000320: 812c 00be 2920 073e 2ec6 1fbe 7c3e bcbd
00000330: 5579 1bbe ff11 10be b09e d13d 9326 fb3d
00000340: 2a08 afbd 1c2d 533d a1c0 34be 2a04 84bd
00000350: af6d 113e df1e 1ebe c565 153e dfc4 f0bd
00000360: 9289 b6bd 98d1 cebd d1fe 243e 2658 d03a
00000370: e316 00be d25c 093e 8afb 38be a50c 20be
00000380: 4afc 9e3d c480 2a3d a2a3 f13c d73c 7a3d
00000390: 55c0 92bc 487a c33d 78c6 483c 387b cd3d
000003a0: 175e ddbd 245a 313e 772d 183d 9da3 d63c
000003b0: 800c cabd 8378 e73d c673 313d ed98 8fbd
000003c0: e5dd 253e 8335 0e3e ef90 723d 23a0 3bbe
000003d0: df14 163e 6d92 d93d a5ef e43d 478a e8bd
000003e0: 6c01 bbbd f09a ff3d 28d7 20be dfa5 a43c
000003f0: 97e2 59bd a7b5 91bc e97f 1d3e 470c f4bb
-0.13136767 -0.1549931 -0.033299156 0.17031139 0.06953253 -0.12217601 -0.09844719 -0.10065744
-0.025842711 -0.17189363 0.023093186 0.07854569 -0.1385133 0.14196151 0.07931005 0.0023631246
-0.05956463 -0.046813626 0.07668837 -0.09405889 -0.0552929 -0.0030395328 0.0038096546 0.16824138
0.054424427 0.093546264 -0.11349232 -0.041344117 -0.060280547 -0.1509358 0.05209138 0.01084135
0.14555697 0.021508915 0.17379934 0.061379205 0.07863574 0.11866566 -0.1422813 -0.056987062
-0.11714745 0.072746284 0.1273292 0.077701904 -0.14641698 0.13532181 -0.10367678 0.046357244
0.17628364 0.030776305 -0.17369562 -0.032990977 -0.0834877 -0.036413096 -0.057304967 -0.12143598
-0.09436904 0.057789914 -0.15594026 0.059998944 -0.03993099 -0.13433076 -0.021453962 -0.08718702
0.0928036 0.07775069 0.10964002 -0.0055476786 -0.17995892 -0.03821795 -0.034624066 -0.13720866
0.09603764 0.112712786 0.011059074 -0.15612344 0.0061821993 0.060569618 -0.039159503 -0.01233074
-0.12102538 0.049696498 -0.13026957 -0.12379416 -0.09680303 0.0920373 0.0608527 0.11905177
-0.030256055 0.14181428 -0.14098397 -0.14672522 0.0757565 0.13830571 -0.12002101 -0.09993474
0.048065268 0.16646387 0.08854978 0.10539627 -0.14923523 0.15157746 -0.018151335 0.17508383
0.17259334 0.02516285 -0.089615524 0.029013347 -0.08235833 -0.15454817 -0.018382264 -0.034934726
0.077047735 -0.14802404 0.06867799 -0.12284653 -0.099916935 0.010056095 -0.07721539 0.14460176
0.14070053 0.10528863 -0.15720034 -0.0987893 -0.12616242 0.04725022 0.14091343 -0.06841649
-0.083941795 0.11008904 -0.14068675 -0.041571666 -0.13203561 0.0868575 -0.097119726 -0.034145765
-0.075631626 0.0015202557 -0.113979556 0.14491759 0.051306892 -0.030271536 -0.16224442 -0.022054674
0.057906806 0.026194507 -0.02700587 0.10634993 -0.15602009 -0.017122213 0.162098 0.06334207
0.050378904 0.14388229 0.077541426 0.11408197 0.11818137 0.00825739 -0.009018507 -0.13418315
0.06389636 0.16707735 0.13550945 -0.079883955 -0.07681577 -0.10959898 -0.055015247 0.123122826
0.13450637 -0.11070124 0.13444549 -0.18171051 -0.12543947 -0.00081322115 0.015658451 -0.030609608
0.12202156 0.12065263 0.08384254 0.09061954 0.09010228 -0.02156839 0.032507338 0.033528086
-0.14176802 -0.1468373 -0.15997212 -0.05294952 0.12735958 -0.16444553 0.053303774 -0.16449516
-0.01228862 0.06576173 -0.041025013 -0.08102213 -0.103803806 0.029607728 0.1778106 0.06759273
-0.12516977 0.13195862 -0.15602943 -0.091916054 -0.15183003 -0.14069365 0.10235345 0.12263217
-0.08546479 0.05155669 -0.17651607 -0.06446107 0.14201997 -0.15441464 0.14589603 -0.117563
-0.08912958 -0.100985706 0.1611283 0.0015895411 -0.1250873 0.13414314 -0.18064705 -0.15629824
0.07762964 0.041626707 0.029496972 0.061093178 -0.017913977 0.09544808 0.01225435 0.10033268
-0.10808962 0.17319542 0.037152734 0.026201064 -0.098656654 0.11302283 0.0433233 -0.0701159
0.16197927 0.138876 0.05922025 -0.18322806 0.14656399 0.106236316 0.11178521 -0.11354499
-0.091311306 0.12480724 -0.15707076 0.020098625 -0.05319461 -0.017786814 0.15380825 -0.0074477526

bias f4 [60]
00000000: 9c70 2fbe ee3e 003e a699 393d 211f a63d
00000010: 76db 1dbe 75dc 303e 8c6c 353c 35a3 05be
00000020: 98ee 8bbd a747 7abd 3370 953b 5523 193e
00000030: 3d6c 2abe 1564 27bd d0b3 fb3d aea2 ab3d
00000040: c5c6 24be 0e90 fa3d f860 263e c22c 07be
00000050: 9574 b33d 1db7 39be a9b9 d6bd 2fcc e0bd
00000060: b6c6 273c 52d0 90bd 3a06 873d 26bb 2ebe
00000070: dd43 8d3b 4858 053d 390e 37be f620 eebd
00000080: 7fa1 653d a687 423c d0f4 c03d 287e cd3b
00000090: 901a b03d 9477 9c3d 2406 babd 25ac a93d
000000a0: 4613 0fbd 95ac 2c3d 9d9b cabd 5c97 4dbd
000000b0: 0a41 acbb 8195 923c 6ab8 2e3e 813d f3bd
000000c0: e766 cebd edd7 f0bc a346 8dbd 8c62 2ebe
000000d0: 7bc5 3c3d c120 8dbd 7daa 20be d521 003e
000000e0: 5d3f 2dbe 0237 cd3d 5bd7 a33d f889 0abe
-0.17132801 0.12524006 0.045312546 0.08111406 -0.15415749 0.17271598 0.011073243 -0.1305054
-0.068326175 -0.06110349 0.0045604943 0.14954884 -0.16642852 -0.04086693 0.12290156 0.08380638
-0.1609145 0.122345075 0.16247928 -0.13200668 0.08762471 -0.18136258 -0.104846306 -0.10976445
0.0102402475 -0.07070984 0.065929845 -0.17063579 0.0043110684 0.032554895 -0.1787652 -0.116273805
0.056062218 0.011873161 0.09421694 0.0062711425 0.085988164 0.07639995 -0.090832025 0.08284787
-0.03493049 0.042156775 -0.09892962 -0.050193176 -0.0052567767 0.017893555 0.17062536 -0.11876965
-0.10078221 -0.029399836 -0.068982385 -0.1702978 0.04608677 -0.06891013 -0.15690036 0.12512906
-0.16918702 0.100202575 0.0800006 -0.13529193

weight f4 [120, 60]
00000000: d221 563d 50b3 e63d cc36 aa3c f649 cdbd
00000010: 6db3 fe3c d8dd ce3d c924 ef3d 97d8 d5bc
00000020: eff1 97bd 61a5 bfbd 1918 d53d 0448 733d
00000030: 0654 553d fa27 a5bd cd68 013e 671a 60bd
00000040: d4a1 db3d 6650 d93d 72f0 e63d 7e63 613d
00000050: fc55 f23d ead5 c4bd e6f9 3bbd fed6 b5bd
00000060: 35d5 8bbd 02a6 a4bd 2ad5 b63d e0e6 183d
00000070: 8e35 723d 043b 92bd d6d4 3dbd 7dc2 f63d
00000080: a73b acbd 7154 5a3d 201d 1d3d b30d 88bd
00000090: 2602 eb3c a059 57bd d282 8abd 4ab9 98bd
000000a0: acef 2bbc 39df 8f3c f821 833a 8ad0 07bd
000000b0: 02d7 d63c 1819 78bd 6646 013e 4a78 a4bd
000000c0: 13f3 52bd 8f2f 213d d120 ea3c ac58 e33b
000000d0: f6df ea3c 1faf a9bc f520 aa3d b5ad 00bd
000000e0: adc0 d13d 4fdc 22bd 43a2 a53d e84b 3cbc
000000f0: 14e1 243a 9c4f b1bd 2446 e73d 57c1 6abd
00000100: dfd3 d2bd 0955 243d 31b8 e13d 4f41 e3bd
00000110: 85a3 ddbd 7a2c 8bbc 449d 113d 9eb5 a0bd
00000120: 18f8 c4bd cbf0 fb3d 07dd 14bd baf8 df3d
00000130: 04c2 d0bd 95a4 383d f2b6 c1bd 99a0 a43d
00000140: 4103 e7bd 1e60 03bd c882 ebbd a1de 54bd
00000150: e23a dbbb 4c23 d7bc d9a8 c9bd c6bd b03d
00000160: c9f0 953d 672c d2bd 6ea7 e0bc 2055 263d
00000170: ad59 b5bd a20a 033e e48f cdbd 1a28 f83d
00000180: 3cfb 7dbd 184b b03c d32f bf3d 513d 88bb
00000190: f76e f13d c8d1 a43d 8c91 e03c 39de 823d
000001a0: cb5e a7bd de55 ddbc b78e 2d3d f38d b3bd
000001b0: f9ce f13d 1cfb b23d ff13 f53c 6547 a8bd
000001c0: 84c3 7b3b b5d6 2e3d 17ed 76bd 2a0e 873d
000001d0: 9a9c ddbd 958d 823b 5cec 7f3d 9fd8 863c
000001e0: 147d 8b3d 70fe c03d 5dbf dc3c fc21 d13c
000001f0: bffa a83c c308 8d3d b18b 94bd 41e5 e0bd
00000200: d097 ce3d 04eb 55bd 3df3 a83c f16b b2bd
00000210: 241e be3d 12ba d3bc 9ca3 80bc 5ce1 d13d
00000220: 6104 c23b 8c52 fc3d dc5d a8bd 2a84 a03d
00000230: 29fa 27bd 49a2 533d d893 9fbd 9de8 bdbb
00000240: 6d52 023e d4c0 993c 5b6c 3bbd 3d38 893d
00000250: 43c4 77bd 17f8 de3d 7068 293c 7afb 2f3d
00000260: d57a e3bd 77d2 9f3c 48c2 333c 3cff 413d
00000270: a0bc 55bd 3270 553d 7bbe 9b3b a4ff 3a3c
00000280: ebbe 90bd ac0f d73c 63c7 86bd 8576 9bbd
00000290: d493 003e 0f3e d43d 0cd4 d13d c227 dd3d
000002a0: bc12 123d dda0 28bd 433d 61bd 4d82 97bd
000002b0: dd21 e53d b4a9 8c3d 149f ba3c e181 1cbc
000002c0: f09f 30bd 3ba3 babd 25b2 393d a5cf cf3c
000002d0: cff5 943d 5cc3 c73d f84b af3b e206 cebd
000002e0: edbb b33d 0a09 2dbd 4d02 afbd c051 ad3d
000002f0: 9b11 85bd e6ee ba3d 3792 e8ba 9881 afbd
00000300: 37de ed3c 5758 f4bd 7d1d b53d b20f f13d
00000310: 187b 503c 485c 073c a200 8c3d 562a a4bd
00000320: 5083 6c3d 87c4 b7bd 833b 86bd 36cc 21bd
00000330: 368d b4bb 235f 0a3c 61be f43d 5ae9 9f3d
00000340: 8512 8c3b d107 b7bd cfd5 96bd a7dd fbbd
00000350: f468 1e3d 4d57 80bc 377c c03d 9900 fcba
00000360: 6738 1d3d f022 b33d f1da d3bd 36e5 bc3c
00000370: 96fb 9bbc 56da cf3d 0221 17bd 0ad4 d3bd
00000380: a83a f03d 3bec 70bd 19ef 4cbd 4f9f ba3b
00000390: 2d10 38bd b2d8 33bd 18d8 44bd 6ced 2b3d
000003a0: e1ed 7a3d 443a 8c3c f257 303d 939b 7e3d
000003b0: 5480 373c ee74 c93d 6eb0 d93d 12dc 213d
000003c0: 34af b43d 6f71 0ebd b950 64bd c21c c2bd
000003d0: f2ca 953d a3a1 213d 19d7 0dbd 109d c93c
000003e0: 0dbb 9dbd ecfa 793d 92c2 8bbd c0dc ccbc
000003f0: 6ac0 263d 7993 9cbd 6bf1 89bd 3601 f93c
0.052278347 0.1126467 0.020778082 -0.100238726 0.031091416 0.10100907 0.11676938 -0.026104255
-0.07419192 -0.093577154 0.10404987 0.05939485 0.052082084 -0.080642655 0.12637635 -0.05471268
0.10724226 0.10611038 0.1127633 0.055026524 0.118328065 -0.09611113 -0.04589262 -0.08878897
-0.068277754 -0.08039476 0.089273766 0.037329555 0.059133105 -0.071401626 -0.046345554 0.120488144
-0.08409815 0.053303186 0.038357854 -0.06643238 0.028687548 -0.052575707 -0.06763233 -0.07457216
-0.010494154 0.017562496 0.001000463 -0.033157863 0.02622557 -0.060570806 0.12624511 -0.08030756
-0.051501345 0.039351996 0.028580101 0.0069380607 0.028671246 -0.020713387 0.08307067 -0.03141566
0.10241828 -0.039760884 0.080875896 -0.011492707 0.0006289643 -0.086577624 0.11292675 -0.05731329
-0.102943175 0.04012016 0.1102146 -0.11096441 -0.108222045 -0.016988982 0.03555037 -0.07847141
-0.09617633 0.12301787 -0.0363436 0.10936113 -0.101932555 0.045078833 -0.09458722 0.08038444
-0.112799175 -0.032074086 -0.11499554 -0.051970128 -0.006690369 -0.026261948 -0.09846658 0.086299464
0.07321317 -0.10262375 -0.027423587 0.040608525 -0.08854995 0.12797025 -0.100372106 0.12117024
-0.062007174 0.021520182 0.093352936 -0.0041577 0.11788743 0.08047825 0.027413152 0.06390042
-0.08172377 -0.027018484 0.04237243 -0.08767309 0.11807055 0.087393016 0.029916761 -0.082167424
0.0038416097 0.04268523 -0.0602847 0.065944985 -0.10820885 0.003984163 0.06248127 0.016460715
0.06810966 0.0942353 0.026946718 0.0255289 0.020627378 0.06886437 -0.072532065 -0.10981227
0.1008755 -0.05222608 0.020623798 -0.087119944 0.092830926 -0.025845561 -0.015703015 0.10248062
0.005920932 0.12320432 -0.08221027 0.07837708 -0.041010056 0.05166844 -0.07791871 -0.005795552
0.12726755 0.018768705 -0.045757633 0.0670018 -0.060489904 0.10887163 0.010339841 0.042964436
-0.11107413 0.019509537 0.010971613 0.04736255 -0.05218184 0.05210895 0.0047529317 0.011413489
-0.07067665 0.02625259 -0.06580999 -0.07590965 0.12556392 0.10363399 0.10245523 0.10798599
0.035662398 -0.041169036 -0.054990064 -0.073979 0.111880995 0.06868306 0.022780932 -0.00955245
-0.04312128 -0.09113165 0.045335907 0.025367567 0.07273447 0.09754059 0.0053496324 -0.100599065
0.087760784 -0.04224495 -0.08545361 0.08462858 -0.064974986 0.091275975 -0.0017743771 -0.0856964
0.029036624 -0.11930912 0.08843515 0.11770572 0.01272466 0.008261748 0.06836058 -0.080158874
0.057742417 -0.089730315 -0.0655432 -0.03950139 -0.0055099977 0.008445534 0.119503744 0.0780818
0.0042746686 -0.08937038 -0.073649995 -0.12298136 0.03867431 -0.015666628 0.09398692 -0.0019226252
0.038383868 0.08746898 -0.10344494 0.023058515 -0.019040864 0.10149066 -0.036896713 -0.103431776
0.11729938 -0.058819037 -0.05003271 0.0056952606 -0.0449373 -0.04390783 -0.048057646 0.04197447
0.061262015 0.017117627 0.04305262 0.062160086 0.011200029 0.09836756 0.106293544 0.039516516
0.0882248 -0.034776147 -0.055741046 -0.09478141 0.07314099 0.03946079 -0.03462896 0.024611026
-0.07701693 0.061030313 -0.06824221 -0.025007606 0.040710844 -0.07645316 -0.067355 0.030396085

bias f4 [120]
00000000: ce19 893d 3269 03bd 35ec f0bd 9cec 9abd
00000010: f865 363d 0cba 303d 596e e4bb 6c5f 483d
00000020: 28c2 c3bd 6134 e0bd de49 473d 9766 46bc
00000030: 4d71 b2bd 7c5b 8bbc e0cc f7bb e134 473c
00000040: f513 403d 83ec 9bbd 2734 e33d 8e73 84bd
00000050: 1f08 fcbd 18e3 c03d 722f bfbd f94f fd3d
00000060: e835 c43d c77d 88bd fafe 9f3c 777c a1bc
00000070: b470 783d ce89 083e 0b71 be3d 0065 55bd
00000080: f4e5 34bd e85d 793d 8387 a63d 34e0 d4bd
00000090: 802c f4bc adb9 f0bc 2e55 81bd 1683 a5bd
000000a0: 47e8 4d3d f944 c13d 2099 563d 9098 923c
000000b0: 9d47 043c cfb0 9ebd bf4c 03be 064d 2c3d
000000c0: da8f 43bd 5e7f 263d a9a9 fd3d 3950 723d
000000d0: 3f52 d0bd fae4 b53d b0d0 67bd 88f7 c3bd
000000e0: a816 9abc 4656 593a 32cc a2bd f9d2 8abd
000000f0: d1d2 eabd 38f2 793d 509a 7abc b2ac 243d
00000100: 5a07 cbbd d75d f0bd c06e f7bd 02c1 413d
00000110: abab 9dbd 363b bbbd 27c5 fb3d 122a 293d
00000120: f668 77bd b29e 00be 815c 00bc af6b d33d
00000130: 10bb 793d 7f67 2b3d 480a f7bd f2f2 adbc
00000140: bbd2 bb3d 69fb c7bd f1de cd3c 7b90 c2bd
00000150: ad46 6cbd 940d 8ebc d460 59bd b9c2 df3b
00000160: 7ee6 cb3d 71eb 1ebc a229 e3bd 25fa f8bd
00000170: 7b7a d2bd 354f 8dbc c5ef ab3b 0091 56bc
00000180: 07d4 103d 0d35 ad3d 05b1 5b3d b076 783c
00000190: 2082 f53d 40d7 48bd 1af5 a63d 8621 afbd
000001a0: 3824 33bd 1b29 0b3e 98b8 e1bd 96da bfbd
000001b0: 38d0 623d 8a95 8ebd 32ff 0cbc f2dc cd3d
000001c0: 2400 863d 802a 71bc 0881 37bd 2f88 8bbd
000001d0: 5c0e 0c3d f4bd 1abd 0e68 6cbd f803 a43d
0.06694375 -0.032082744 -0.11763803 -0.07564661 0.04453084 0.043146178 -0.0069711623 0.048919126
-0.09558517 -0.109474905 0.04865443 -0.01210942 -0.08713017 -0.017011397 -0.007562265 0.012158603
0.046894033 -0.076134704 0.11093932 -0.06467353 -0.123062365 0.09418315 -0.09335221 0.12368769
0.09580594 -0.06664615 0.019530762 -0.01971267 0.060654357 0.13333818 0.09298905 -0.052098274
-0.044164613 0.06088057 0.081313156 -0.10394326 -0.029806376 -0.029385412 -0.06315075 -0.08081643
0.050270345 0.094369836 0.052392125 0.017895013 0.008073715 -0.07748567 -0.12822245 0.042065643
-0.04774461 0.04064881 0.12385876 0.059158538 -0.10171937 0.088815644 -0.056595504 -0.09568697
-0.018809631 0.0008290749 -0.079491034 -0.06778521 -0.11465991 0.061022013 -0.01529558 0.040203758
-0.099135116 -0.117366485 -0.12081671 0.047303207 -0.07698759 -0.09142153 0.12293463 0.041299887
-0.060402833 -0.12560537 -0.007834555 0.103232734 0.060969412 0.04184675 -0.12062508 -0.02123401
0.09171053 -0.097647496 0.02513072 -0.09500214 -0.05768459 -0.017340459 -0.053070858 0.0068286327
0.09956072 -0.009699688 -0.11091925 -0.12157086 -0.102772675 -0.017249683 0.0052470886 -0.013096094
0.035358455 0.08457384 0.053635616 0.015165016 0.1198771 -0.049033403 0.08152218 -0.08551316
-0.043735713 0.13589899 -0.110215366 -0.09367864 0.055374354 -0.06962116 -0.008605765 0.100519076
0.065429956 -0.014719605 -0.04480079 -0.06813084 0.03419338 -0.03777881 -0.05771642 0.080085695

weight f4 [8, 15]
00000000: a23f 783d 09bc 0fbe 9e04 1dbe 139b 6d3c
00000010: 7045 613d 8af8 81be 1867 a8bd 4e7a ef3d
00000020: de2b 093e 48b2 06be 9a5a 633e 596e 40be
00000030: f98e cf3d a314 1e3c 729f 233e 383c 14be
00000040: 6cb3 08bd 308d e8bd 9ce9 6bbe 0cc8 5cbe
00000050: 30e7 693c 6024 cd3d ecdc 08be 7408 3fbe
00000060: 6003 273e 6e8b 053e c046 4abc fef2 2c3e
00000070: 9c3c 6e3e 3097 823b 0766 babc c4c2 1cbe
00000080: de94 18be e7c9 cd3d 4350 283e 1757 7d3e
00000090: a29e a3bd 9c4b 24be 1ba2 8ebd 984e 5cbe
000000a0: f2eb 053e 6b9b 43be 93c2 7f3e 1742 2c3e
000000b0: 07eb 073e cc96 a63d d079 643c f55c 2cbe
000000c0: ee34 233e ea9e ecbd 36cd 5c3e bc0a e5bd
000000d0: 5352 60be 2a50 423e b95e ec3c 1ebe 36be
000000e0: 85ef 1fbc 8201 d0bd 95dc 51be 8c43 53bd
000000f0: f8ce 6bbb ee53 513e a626 25be 7769 e8bd
00000100: 1c72 31be 066e 47be e34a e83d 0416 16bd
00000110: 0a9d 5dbe 9f4b 393e 4d26 233e b0dd 8e3d
00000120: 2f8c 1f3e fc7e 73bd d8be 643e 0dae 1c3e
00000130: 5f7e ccbd b9cf 4bbe 308f e7bd 95ca 5a3e
00000140: f030 4ebd 33d2 8e3a a883 04bd 88ea 0f3e
00000150: 0fba cb3d 61bd a83b c7f4 363d 7790 27be
00000160: d8a0 3bbe 129d 813e 09f3 37bd 8e3f 11be
00000170: 04cd f43d 0265 1ebe 4204 a8bd 147b 95bd
00000180: 6a31 393d f7dc 4e3e 3d0f 8cbb eb1b 823e
00000190: fdcb 75be d8e9 dbbd be86 98bd 9bf4 0abd
000001a0: 2c55 bebc 813d 39be a473 c33c 4008 093e
000001b0: 3348 ecbd 38b5 36be ee9b dabd fb49 e0bb
000001c0: 2b63 383d 3751 413e 7a90 7f3e fb53 683e
000001d0: 9ec5 d4bd bcf9 81be 8718 19be fc19 193e
0.06060756 -0.14036573 -0.15333793 0.014502305 0.05499786 -0.25384933 -0.082227886 0.1169325
0.1339564 -0.13153946 0.2220253 -0.18792094 0.10134692 0.009648475 0.15978792 -0.14476097
-0.033374235 -0.113550544 -0.23038334 -0.21560687 0.014276311 0.100167036 -0.13365525 -0.18655568
0.16309881 0.1304147 -0.01234597 0.16889569 0.23265308 0.003985308 -0.022753729 -0.15308672
-0.14900538 0.100482754 0.16436867 0.24740253 -0.07989241 -0.16044468 -0.06964513 -0.21514356
0.13078287 -0.19102256 0.24976568 0.16822086 0.1327325 0.08134231 0.013945058 -0.16832335
0.1593816 -0.11553748 0.21562657 -0.11183688 -0.21906404 0.18975893 0.028853761 -0.17845961
-0.009761696 -0.101565376 -0.20494302 -0.05157809 -0.0035981517 0.20442173 -0.16128024 -0.11348241
-0.17328686 -0.19475564 0.113424085 -0.03664209 -0.21641937 0.18095253 0.1593258 0.06975877
0.1558082 -0.059447274 0.22338426 0.1530077 -0.09985041 -0.19903459 -0.11306608 0.21366341
-0.05033964 0.0010896384 -0.03235212 0.1405431 0.09947597 0.005149529 0.04466703 -0.16363703
-0.18323076 0.25315148 -0.04490951 -0.141844 0.11953166 -0.15468219 -0.08203937 -0.07298866
0.04521314 0.20201479 -0.0042742775 0.25411925 -0.24003597 -0.107379615 -0.07447575 -0.03392468
-0.023233972 -0.18089868 0.023858853 0.13382053 -0.115372084 -0.17842567 -0.106742725 -0.0068447567
0.04501645 0.18878637 0.24957457 0.22688286 -0.10389255 -0.25385845 -0.14950763 0.14951319

bias f4 [8]
00000000: c0fe f4bd 54de b0bd 75b6 aa3e c0f4 413d
00000010: 2355 e0bb 6c66 e5bd ef05 593e f986 c63d
-0.11962652 -0.08636156 0.3334233 0.047352552 -0.0068460866 -0.11201176 0.2119367 0.09693713

weight f4 [1, 4]
00000000: 3e3e 403d 581a 933e ba41 cabe 3c2a 913d
0.04693436 0.28731036 -0.3950327 0.07088134
